…
        "colab": {
          "base_uri": "https://localhost:8080/"
        },
        "id": "CnYbu_Z4r-50",
        "outputId": "48da10d7-add7-490b-d47b-9a652b40b9d7"
      },
      "outputs": [
        {
          "output_type": "stream",
          "name": "stdout",
          "text": [
            "Model: \"sequential\"\n",
            "_________________________________________________________________\n",
            " Layer (type)                Output Shape              Param #   \n",
            "=================================================================\n",
            " conv2d (Conv2D)             (None, 28, 28, 75)        750       \n",
            "                                                                 \n",
            " batch_normalization (BatchN  (None, 28, 28, 75)       300       \n",
            " ormalization)                                                   \n",
            "                                                                 \n",
            " max_pooling2d (MaxPooling2D  (None, 14, 14, 75)       0         \n",
            " )                                                               \n",
            "                                                                 \n",
            " conv2d_1 (Conv2D)           (None, 14, 14, 50)        33800     \n",
            "                                                                 \n",
            " dropout (Dropout)           (None, 14, 14, 50)        0         \n",
            "                                                                 \n",
            " batch_normalization_1 (Batc  (None, 14, 14, 50)       200       \n",
            " hNormalization)                                                 \n",
            "                                                                 \n",
            " max_pooling2d_1 (MaxPooling  (None, 7, 7, 50)         0         \n",
            " 2D)                                                             \n",
            "                                                                 \n",
            " conv2d_2 (Conv2D)           (None, 7, 7, 25)          11275     \n",
            "                                                                 \n",
            " batch_normalization_2 (Batc  (None, 7, 7, 25)         100       \n",
            " hNormalization)                                                 \n",
            "                                                                 \n",
            " max_pooling2d_2 (MaxPooling  (None, 4, 4, 25)         0         \n",
            " 2D)                                                             \n",
            "                                                                 \n",
            " flatten (Flatten)           (None, 400)               0         \n",
            "                                                                 \n",
            " dense (Dense)               (None, 512)               205312    \n",
            "                                                                 \n",
            " dropout_1 (Dropout)         (None, 512)               0         \n",
            "                                                                 \n",
            " dense_1 (Dense)             (None, 10)                5130      \n",
            "                                                                 \n",
            "=================================================================\n",
            "Total params: 256,867\n",
            "Trainable params: 256,567\n",
            "Non-trainable params: 300\n",
            "_________________________________________________________________\n"
          ]
        }
…
